…
  LR_SCHEDULER:
    DECAY_EPOCHS: 30
    DECAY_RATE: 0.1
    NAME: cosine
  MIN_LR: 0.0
  OPTIMIZER:
    BETAS:
    - 0.9
    - 0.999
    EPS: 1.0e-08
    MOMENTUM: 0.9
    NAME: sgd
  SCALES_PATH: null
  START_EPOCH: 0
  USE_CHECKPOINT: false
  WARMUP_EPOCHS: 20
  WARMUP_LR: 0.0
  WEIGHT_DECAY: 0.05

[2022-12-19 20:31:24 RepVGGplus-tinyism] (train_repvgg.py 66): INFO Creating model:RepVGGplus-tinyism
[2022-12-19 20:31:52 RepVGGplus-tinyism] (train_repvgg.py 73): INFO tinyModel(
  (backbone): RepVGGplusPhen(
    (stage0): RepVGGplusBlock(
      (nonlinearity): ReLU()
      (post_se): SEBlock(
        (down): Conv2d(64, 16, kernel_size=(1, 1), stride=(1, 1))
        (up): Conv2d(16, 64, kernel_size=(1, 1), stride=(1, 1))
      )
      (rbr_dense): Sequential(
        (conv): Conv2d(3, 64, kernel_size=(3, 3), stride=(2, 2), padding=(1, 1), bias=False)
        (bn): BatchNorm2d(64, eps=1e-05, momentum=0.1, affine=True, track_running_stats=True)
      )
      (rbr_1x1): Sequential(
        (conv): Conv2d(3, 64, kernel_size=(1, 1), stride=(2, 2), bias=False)
        (bn): BatchNorm2d(64, eps=1e-05, momentum=0.1, affine=True, track_running_stats=True)
      )
    )
    (stage1): RepVGGplusStage(
      (blocks): ModuleList(
        (0): RepVGGplusBlock(
          (nonlinearity): ReLU()
          (post_se): SEBlock(
            (down): Conv2d(160, 40, kernel_size=(1, 1), stride=(1, 1))
            (up): Conv2d(40, 160, kernel_size=(1, 1), stride=(1, 1))
          )
          (rbr_dense): Sequential(
            (conv): Conv2d(64, 160, kernel_size=(3, 3), stride=(2, 2), padding=(1, 1), bias=False)
            (bn): BatchNorm2d(160, eps=1e-05, momentum=0.1, affine=True, track_running_stats=True)
          )
          (rbr_1x1): Sequential(
            (conv): Conv2d(64, 160, kernel_size=(1, 1), stride=(2, 2), bias=False)
            (bn): BatchNorm2d(160, eps=1e-05, momentum=0.1, affine=True, track_running_stats=True)
          )
        )
        (1): RepVGGplusBlock(
          (nonlinearity): ReLU()
          (post_se): SEBlock(
            (down): Conv2d(160, 40, kernel_size=(1, 1), stride=(1, 1))
            (up): Conv2d(40, 160, kernel_size=(1, 1), stride=(1, 1))
          )
          (rbr_identity): BatchNorm2d(160, eps=1e-05, momentum=0.1, affine=True, track_running_stats=True)
          (rbr_dense): Sequential(
            (conv): Conv2d(160, 160, kernel_size=(3, 3), stride=(1, 1), padding=(1, 1), bias=False)
            (bn): BatchNorm2d(160, eps=1e-05, momentum=0.1, affine=True, track_running_stats=True)
          )
          (rbr_1x1): Sequential(
            (conv): Conv2d(160, 160, kernel_size=(1, 1), stride=(1, 1), bias=False)
            (bn): BatchNorm2d(160, eps=1e-05, momentum=0.1, affine=True, track_running_stats=True)
          )
        )
        (2): RepVGGplusBlock(
          (nonlinearity): ReLU()
          (post_se): SEBlock(
            (down): Conv2d(160, 40, kernel_size=(1, 1), stride=(1, 1))
            (up): Conv2d(40, 160, kernel_size=(1, 1), stride=(1, 1))
          )
          (rbr_identity): BatchNorm2d(160, eps=1e-05, momentum=0.1, affine=True, track_running_stats=True)
          (rbr_dense): Sequential(
            (conv): Conv2d(160, 160, kernel_size=(3, 3), stride=(1, 1), padding=(1, 1), bias=False)
            (bn): BatchNorm2d(160, eps=1e-05, momentum=0.1, affine=True, track_running_stats=True)
          )
          (rbr_1x1): Sequential(
            (conv): Conv2d(160, 160, kernel_size=(1, 1), stride=(1, 1), bias=False)
            (bn): BatchNorm2d(160, eps=1e-05, momentum=0.1, affine=True, track_running_stats=True)
          )
        )
        (3): RepVGGplusBlock(
          (nonlinearity): ReLU()
          (post_se): SEBlock(
            (down): Conv2d(160, 40, kernel_size=(1, 1), stride=(1, 1))
            (up): Conv2d(40, 160, kernel_size=(1, 1), stride=(1, 1))
          )
          (rbr_identity): BatchNorm2d(160, eps=1e-05, momentum=0.1, affine=True, track_running_stats=True)
          (rbr_dense): Sequential(
            (conv): Conv2d(160, 160, kernel_size=(3, 3), stride=(1, 1), padding=(1, 1), bias=False)
            (bn): BatchNorm2d(160, eps=1e-05, momentum=0.1, affine=True, track_running_stats=True)
          )
          (rbr_1x1): Sequential(
            (conv): Conv2d(160, 160, kernel_size=(1, 1), stride=(1, 1), bias=False)
            (bn): BatchNorm2d(160, eps=1e-05, momentum=0.1, affine=True, track_running_stats=True)
          )
        )
        (4): RepVGGplusBlock(
          (nonlinearity): ReLU()
          (post_se): SEBlock(
            (down): Conv2d(160, 40, kernel_size=(1, 1), stride=(1, 1))
            (up): Conv2d(40, 160, kernel_size=(1, 1), stride=(1, 1))
          )
          (rbr_identity): BatchNorm2d(160, eps=1e-05, momentum=0.1, affine=True, track_running_stats=True)
          (rbr_dense): Sequential(
            (conv): Conv2d(160, 160, kernel_size=(3, 3), stride=(1, 1), padding=(1, 1), bias=False)
            (bn): BatchNorm2d(160, eps=1e-05, momentum=0.1, affine=True, track_running_stats=True)
          )
          (rbr_1x1): Sequential(
            (conv): Conv2d(160, 160, kernel_size=(1, 1), stride=(1, 1), bias=False)
            (bn): BatchNorm2d(160, eps=1e-05, momentum=0.1, affine=True, track_running_stats=True)
          )
        )
        (5): RepVGGplusBlock(
          (nonlinearity): ReLU()
          (post_se): SEBlock(
            (down): Conv2d(160, 40, kernel_size=(1, 1), stride=(1, 1))
            (up): Conv2d(40, 160, kernel_size=(1, 1), stride=(1, 1))
          )
          (rbr_identity): BatchNorm2d(160, eps=1e-05, momentum=0.1, affine=True, track_running_stats=True)
          (rbr_dense): Sequential(
            (conv): Conv2d(160, 160, kernel_size=(3, 3), stride=(1, 1), padding=(1, 1), bias=False)
            (bn): BatchNorm2d(160, eps=1e-05, momentum=0.1, affine=True, track_running_stats=True)
          )
          (rbr_1x1): Sequential(
            (conv): Conv2d(160, 160, kernel_size=(1, 1), stride=(1, 1), bias=False)
            (bn): BatchNorm2d(160, eps=1e-05, momentum=0.1, affine=True, track_running_stats=True)
          )
        )
        (6): RepVGGplusBlock(
          (nonlinearity): ReLU()
          (post_se): SEBlock(
            (down): Conv2d(160, 40, kernel_size=(1, 1), stride=(1, 1))
            (up): Conv2d(40, 160, kernel_size=(1, 1), stride=(1, 1))
          )
          (rbr_identity): BatchNorm2d(160, eps=1e-05, momentum=0.1, affine=True, track_running_stats=True)
          (rbr_dense): Sequential(
            (conv): Conv2d(160, 160, kernel_size=(3, 3), stride=(1, 1), padding=(1, 1), bias=False)
            (bn): BatchNorm2d(160, eps=1e-05, momentum=0.1, affine=True, track_running_stats=True)
          )
          (rbr_1x1): Sequential(
            (conv): Conv2d(160, 160, kernel_size=(1, 1), stride=(1, 1), bias=False)
            (bn): BatchNorm2d(160, eps=1e-05, momentum=0.1, affine=True, track_running_stats=True)
          )
        )
        (7): RepVGGplusBlock(
          (nonlinearity): ReLU()
          (post_se): SEBlock(
            (down): Conv2d(160, 40, kernel_size=(1, 1), stride=(1, 1))
            (up): Conv2d(40, 160, kernel_size=(1, 1), stride=(1, 1))
          )
          (rbr_identity): BatchNorm2d(160, eps=1e-05, momentum=0.1, affine=True, track_running_stats=True)
          (rbr_dense): Sequential(
            (conv): Conv2d(160, 160, kernel_size=(3, 3), stride=(1, 1), padding=(1, 1), bias=False)
            (bn): BatchNorm2d(160, eps=1e-05, momentum=0.1, affine=True, track_running_stats=True)
          )
          (rbr_1x1): Sequential(
            (conv): Conv2d(160, 160, kernel_size=(1, 1), stride=(1, 1), bias=False)
            (bn): BatchNorm2d(160, eps=1e-05, momentum=0.1, affine=True, track_running_stats=True)
          )
        )
      )
    )
    (stage2): RepVGGplusStage(
      (blocks): ModuleList(
        (0): RepVGGplusBlock(
          (nonlinearity): ReLU()
          (post_se): SEBlock(
            (down): Conv2d(320, 80, kernel_size=(1, 1), stride=(1, 1))
            (up): Conv2d(80, 320, kernel_size=(1, 1), stride=(1, 1))
          )
          (rbr_dense): Sequential(
            (conv): Conv2d(160, 320, kernel_size=(3, 3), stride=(2, 2), padding=(1, 1), bias=False)
            (bn): BatchNorm2d(320, eps=1e-05, momentum=0.1, affine=True, track_running_stats=True)
          )
          (rbr_1x1): Sequential(
            (conv): Conv2d(160, 320, kernel_size=(1, 1), stride=(2, 2), bias=False)
            (bn): BatchNorm2d(320, eps=1e-05, momentum=0.1, affine=True, track_running_stats=True)
          )
        )
        (1): RepVGGplusBlock(
          (nonlinearity): ReLU()
          (post_se): SEBlock(
            (down): Conv2d(320, 80, kernel_size=(1, 1), stride=(1, 1))
            (up): Conv2d(80, 320, kernel_size=(1, 1), stride=(1, 1))
          )
          (rbr_identity): BatchNorm2d(320, eps=1e-05, momentum=0.1, affine=True, track_running_stats=True)
          (rbr_dense): Sequential(
            (conv): Conv2d(320, 320, kernel_size=(3, 3), stride=(1, 1), padding=(1, 1), bias=False)
            (bn): BatchNorm2d(320, eps=1e-05, momentum=0.1, affine=True, track_running_stats=True)
          )
          (rbr_1x1): Sequential(
            (conv): Conv2d(320, 320, kernel_size=(1, 1), stride=(1, 1), bias=False)
            (bn): BatchNorm2d(320, eps=1e-05, momentum=0.1, affine=True, track_running_stats=True)
          )
        )
        (2): RepVGGplusBlock(
          (nonlinearity): ReLU()
          (post_se): SEBlock(
            (down): Conv2d(320, 80, kernel_size=(1, 1), stride=(1, 1))
            (up): Conv2d(80, 320, kernel_size=(1, 1), stride=(1, 1))
          )
          (rbr_identity): BatchNorm2d(320, eps=1e-05, momentum=0.1, affine=True, track_running_stats=True)
          (rbr_dense): Sequential(
            (conv): Conv2d(320, 320, kernel_size=(3, 3), stride=(1, 1), padding=(1, 1), bias=False)
            (bn): BatchNorm2d(320, eps=1e-05, momentum=0.1, affine=True, track_running_stats=True)
          )
          (rbr_1x1): Sequential(
            (conv): Conv2d(320, 320, kernel_size=(1, 1), stride=(1, 1), bias=False)
            (bn): BatchNorm2d(320, eps=1e-05, momentum=0.1, affine=True, track_running_stats=True)
          )
        )
        (3): RepVGGplusBlock(
          (nonlinearity): ReLU()
          (post_se): SEBlock(
            (down): Conv2d(320, 80, kernel_size=(1, 1), stride=(1, 1))
            (up): Conv2d(80, 320, kernel_size=(1, 1), stride=(1, 1))
          )
          (rbr_identity): BatchNorm2d(320, eps=1e-05, momentum=0.1, affine=True, track_running_stats=True)
          (rbr_dense): Sequential(
            (conv): Conv2d(320, 320, kernel_size=(3, 3), stride=(1, 1), padding=(1, 1), bias=False)
            (bn): BatchNorm2d(320, eps=1e-05, momentum=0.1, affine=True, track_running_stats=True)
          )
          (rbr_1x1): Sequential(
            (conv): Conv2d(320, 320, kernel_size=(1, 1), stride=(1, 1), bias=False)
            (bn): BatchNorm2d(320, eps=1e-05, momentum=0.1, affine=True, track_running_stats=True)
          )
        )
        (4): RepVGGplusBlock(
          (nonlinearity): ReLU()
          (post_se): SEBlock(
            (down): Conv2d(320, 80, kernel_size=(1, 1), stride=(1, 1))
            (up): Conv2d(80, 320, kernel_size=(1, 1), stride=(1, 1))
          )
          (rbr_identity): BatchNorm2d(320, eps=1e-05, momentum=0.1, affine=True, track_running_stats=True)
          (rbr_dense): Sequential(
            (conv): Conv2d(320, 320, kernel_size=(3, 3), stride=(1, 1), padding=(1, 1), bias=False)
            (bn): BatchNorm2d(320, eps=1e-05, momentum=0.1, affine=True, track_running_stats=True)
          )
          (rbr_1x1): Sequential(
            (conv): Conv2d(320, 320, kernel_size=(1, 1), stride=(1, 1), bias=False)
            (bn): BatchNorm2d(320, eps=1e-05, momentum=0.1, affine=True, track_running_stats=True)
          )
        )
        (5): RepVGGplusBlock(
          (nonlinearity): ReLU()
          (post_se): SEBlock(
            (down): Conv2d(320, 80, kernel_size=(1, 1), stride=(1, 1))
            (up): Conv2d(80, 320, kernel_size=(1, 1), stride=(1, 1))
          )
          (rbr_identity): BatchNorm2d(320, eps=1e-05, momentum=0.1, affine=True, track_running_stats=True)
          (rbr_dense): Sequential(
            (conv): Conv2d(320, 320, kernel_size=(3, 3), stride=(1, 1), padding=(1, 1), bias=False)
            (bn): BatchNorm2d(320, eps=1e-05, momentum=0.1, affine=True, track_running_stats=True)
          )
          (rbr_1x1): Sequential(
            (conv): Conv2d(320, 320, kernel_size=(1, 1), stride=(1, 1), bias=False)
            (bn): BatchNorm2d(320, eps=1e-05, momentum=0.1, affine=True, track_running_stats=True)
          )
        )
        (6): RepVGGplusBlock(
          (nonlinearity): ReLU()
          (post_se): SEBlock(
            (down): Conv2d(320, 80, kernel_size=(1, 1), stride=(1, 1))
            (up): Conv2d(80, 320, kernel_size=(1, 1), stride=(1, 1))
          )
          (rbr_identity): BatchNorm2d(320, eps=1e-05, momentum=0.1, affine=True, track_running_stats=True)
          (rbr_dense): Sequential(
            (conv): Conv2d(320, 320, kernel_size=(3, 3), stride=(1, 1), padding=(1, 1), bias=False)
            (bn): BatchNorm2d(320, eps=1e-05, momentum=0.1, affine=True, track_running_stats=True)
          )
          (rbr_1x1): Sequential(
            (conv): Conv2d(320, 320, kernel_size=(1, 1), stride=(1, 1), bias=False)
            (bn): BatchNorm2d(320, eps=1e-05, momentum=0.1, affine=True, track_running_stats=True)
          )
        )
        (7): RepVGGplusBlock(
          (nonlinearity): ReLU()
          (post_se): SEBlock(
            (down): Conv2d(320, 80, kernel_size=(1, 1), stride=(1, 1))
            (up): Conv2d(80, 320, kernel_size=(1, 1), stride=(1, 1))
          )
          (rbr_identity): BatchNorm2d(320, eps=1e-05, momentum=0.1, affine=True, track_running_stats=True)
          (rbr_dense): Sequential(
            (conv): Conv2d(320, 320, kernel_size=(3, 3), stride=(1, 1), padding=(1, 1), bias=False)
            (bn): BatchNorm2d(320, eps=1e-05, momentum=0.1, affine=True, track_running_stats=True)
          )
          (rbr_1x1): Sequential(
            (conv): Conv2d(320, 320, kernel_size=(1, 1), stride=(1, 1), bias=False)
            (bn): BatchNorm2d(320, eps=1e-05, momentum=0.1, affine=True, track_running_stats=True)
          )
        )
        (8): RepVGGplusBlock(
          (nonlinearity): ReLU()
          (post_se): SEBlock(
            (down): Conv2d(320, 80, kernel_size=(1, 1), stride=(1, 1))
            (up): Conv2d(80, 320, kernel_size=(1, 1), stride=(1, 1))
          )
          (rbr_identity): BatchNorm2d(320, eps=1e-05, momentum=0.1, affine=True, track_running_stats=True)
          (rbr_dense): Sequential(
            (conv): Conv2d(320, 320, kernel_size=(3, 3), stride=(1, 1), padding=(1, 1), bias=False)
            (bn): BatchNorm2d(320, eps=1e-05, momentum=0.1, affine=True, track_running_stats=True)
          )
          (rbr_1x1): Sequential(
            (conv): Conv2d(320, 320, kernel_size=(1, 1), stride=(1, 1), bias=False)
            (bn): BatchNorm2d(320, eps=1e-05, momentum=0.1, affine=True, track_running_stats=True)
          )
        )
        (9): RepVGGplusBlock(
          (nonlinearity): ReLU()
          (post_se): SEBlock(
            (down): Conv2d(320, 80, kernel_size=(1, 1), stride=(1, 1))
            (up): Conv2d(80, 320, kernel_size=(1, 1), stride=(1, 1))
          )
          (rbr_identity): BatchNorm2d(320, eps=1e-05, momentum=0.1, affine=True, track_running_stats=True)
          (rbr_dense): Sequential(
            (conv): Conv2d(320, 320, kernel_size=(3, 3), stride=(1, 1), padding=(1, 1), bias=False)
            (bn): BatchNorm2d(320, eps=1e-05, momentum=0.1, affine=True, track_running_stats=True)
          )
          (rbr_1x1): Sequential(
            (conv): Conv2d(320, 320, kernel_size=(1, 1), stride=(1, 1), bias=False)
            (bn): BatchNorm2d(320, eps=1e-05, momentum=0.1, affine=True, track_running_stats=True)
          )
        )
        (10): RepVGGplusBlock(
          (nonlinearity): ReLU()
          (post_se): SEBlock(
            (down): Conv2d(320, 80, kernel_size=(1, 1), stride=(1, 1))
            (up): Conv2d(80, 320, kernel_size=(1, 1), stride=(1, 1))
          )
          (rbr_identity): BatchNorm2d(320, eps=1e-05, momentum=0.1, affine=True, track_running_stats=True)
          (rbr_dense): Sequential(
            (conv): Conv2d(320, 320, kernel_size=(3, 3), stride=(1, 1), padding=(1, 1), bias=False)
            (bn): BatchNorm2d(320, eps=1e-05, momentum=0.1, affine=True, track_running_stats=True)
          )
          (rbr_1x1): Sequential(
            (conv): Conv2d(320, 320, kernel_size=(1, 1), stride=(1, 1), bias=False)
            (bn): BatchNorm2d(320, eps=1e-05, momentum=0.1, affine=True, track_running_stats=True)
          )
        )
        (11): RepVGGplusBlock(
          (nonlinearity): ReLU()
          (post_se): SEBlock(
            (down): Conv2d(320, 80, kernel_size=(1, 1), stride=(1, 1))
            (up): Conv2d(80, 320, kernel_size=(1, 1), stride=(1, 1))
          )
          (rbr_identity): BatchNorm2d(320, eps=1e-05, momentum=0.1, affine=True, track_running_stats=True)
          (rbr_dense): Sequential(
            (conv): Conv2d(320, 320, kernel_size=(3, 3), stride=(1, 1), padding=(1, 1), bias=False)
            (bn): BatchNorm2d(320, eps=1e-05, momentum=0.1, affine=True, track_running_stats=True)
          )
          (rbr_1x1): Sequential(
            (conv): Conv2d(320, 320, kernel_size=(1, 1), stride=(1, 1), bias=False)
            (bn): BatchNorm2d(320, eps=1e-05, momentum=0.1, affine=True, track_running_stats=True)
          )
        )
        (12): RepVGGplusBlock(
          (nonlinearity): ReLU()
          (post_se): SEBlock(
            (down): Conv2d(320, 80, kernel_size=(1, 1), stride=(1, 1))
            (up): Conv2d(80, 320, kernel_size=(1, 1), stride=(1, 1))
          )
          (rbr_identity): BatchNorm2d(320, eps=1e-05, momentum=0.1, affine=True, track_running_stats=True)
          (rbr_dense): Sequential(
            (conv): Conv2d(320, 320, kernel_size=(3, 3), stride=(1, 1), padding=(1, 1), bias=False)
            (bn): BatchNorm2d(320, eps=1e-05, momentum=0.1, affine=True, track_running_stats=True)
          )
          (rbr_1x1): Sequential(
            (conv): Conv2d(320, 320, kernel_size=(1, 1), stride=(1, 1), bias=False)
            (bn): BatchNorm2d(320, eps=1e-05, momentum=0.1, affine=True, track_running_stats=True)
          )
        )
        (13): RepVGGplusBlock(
          (nonlinearity): ReLU()
          (post_se): SEBlock(
            (down): Conv2d(320, 80, kernel_size=(1, 1), stride=(1, 1))
            (up): Conv2d(80, 320, kernel_size=(1, 1), stride=(1, 1))
          )
          (rbr_identity): BatchNorm2d(320, eps=1e-05, momentum=0.1, affine=True, track_running_stats=True)
          (rbr_dense): Sequential(
            (conv): Conv2d(320, 320, kernel_size=(3, 3), stride=(1, 1), padding=(1, 1), bias=False)
            (bn): BatchNorm2d(320, eps=1e-05, momentum=0.1, affine=True, track_running_stats=True)
          )
          (rbr_1x1): Sequential(
            (conv): Conv2d(320, 320, kernel_size=(1, 1), stride=(1, 1), bias=False)
            (bn): BatchNorm2d(320, eps=1e-05, momentum=0.1, affine=True, track_running_stats=True)
          )
        )
      )
    )
    (stage3): RepVGGplusStage(
      (blocks): ModuleList(
        (0): RepVGGplusBlock(
          (nonlinearity): ReLU()
          (post_se): SEBlock(
            (down): Conv2d(512, 128, kernel_size=(1, 1), stride=(1, 1))
            (up): Conv2d(128, 512, kernel_size=(1, 1), stride=(1, 1))
          )
          (rbr_dense): Sequential(
            (conv): Conv2d(320, 512, kernel_size=(3, 3), stride=(1, 1), padding=(1, 1), bias=False)
            (bn): BatchNorm2d(512, eps=1e-05, momentum=0.1, affine=True, track_running_stats=True)
          )
          (rbr_1x1): Sequential(
            (conv): Conv2d(320, 512, kernel_size=(1, 1), stride=(1, 1), bias=False)
            (bn): BatchNorm2d(512, eps=1e-05, momentum=0.1, affine=True, track_running_stats=True)
          )
        )
        (1): RepVGGplusBlock(
          (nonlinearity): ReLU()
          (post_se): SEBlock(
            (down): Conv2d(512, 128, kernel_size=(1, 1), stride=(1, 1))
            (up): Conv2d(128, 512, kernel_size=(1, 1), stride=(1, 1))
          )
          (rbr_identity): BatchNorm2d(512, eps=1e-05, momentum=0.1, affine=True, track_running_stats=True)
          (rbr_dense): Sequential(
            (conv): Conv2d(512, 512, kernel_size=(3, 3), stride=(1, 1), padding=(1, 1), bias=False)
            (bn): BatchNorm2d(512, eps=1e-05, momentum=0.1, affine=True, track_running_stats=True)
          )
          (rbr_1x1): Sequential(
            (conv): Conv2d(512, 512, kernel_size=(1, 1), stride=(1, 1), bias=False)
            (bn): BatchNorm2d(512, eps=1e-05, momentum=0.1, affine=True, track_running_stats=True)
          )
        )
        (2): RepVGGplusBlock(
          (nonlinearity): ReLU()
          (post_se): SEBlock(
            (down): Conv2d(512, 128, kernel_size=(1, 1), stride=(1, 1))
            (up): Conv2d(128, 512, kernel_size=(1, 1), stride=(1, 1))
          )
          (rbr_identity): BatchNorm2d(512, eps=1e-05, momentum=0.1, affine=True, track_running_stats=True)
          (rbr_dense): Sequential(
            (conv): Conv2d(512, 512, kernel_size=(3, 3), stride=(1, 1), padding=(1, 1), bias=False)
            (bn): BatchNorm2d(512, eps=1e-05, momentum=0.1, affine=True, track_running_stats=True)
          )
          (rbr_1x1): Sequential(
            (conv): Conv2d(512, 512, kernel_size=(1, 1), stride=(1, 1), bias=False)
            (bn): BatchNorm2d(512, eps=1e-05, momentum=0.1, affine=True, track_running_stats=True)
          )
        )
        (3): RepVGGplusBlock(
          (nonlinearity): ReLU()
          (post_se): SEBlock(
            (down): Conv2d(512, 128, kernel_size=(1, 1), stride=(1, 1))
            (up): Conv2d(128, 512, kernel_size=(1, 1), stride=(1, 1))
          )
          (rbr_identity): BatchNorm2d(512, eps=1e-05, momentum=0.1, affine=True, track_running_stats=True)
          (rbr_dense): Sequential(
            (conv): Conv2d(512, 512, kernel_size=(3, 3), stride=(1, 1), padding=(1, 1), bias=False)
            (bn): BatchNorm2d(512, eps=1e-05, momentum=0.1, affine=True, track_running_stats=True)
          )
          (rbr_1x1): Sequential(
            (conv): Conv2d(512, 512, kernel_size=(1, 1), stride=(1, 1), bias=False)
            (bn): BatchNorm2d(512, eps=1e-05, momentum=0.1, affine=True, track_running_stats=True)
          )
        )
        (4): RepVGGplusBlock(
          (nonlinearity): ReLU()
          (post_se): SEBlock(
            (down): Conv2d(512, 128, kernel_size=(1, 1), stride=(1, 1))
            (up): Conv2d(128, 512, kernel_size=(1, 1), stride=(1, 1))
          )
          (rbr_identity): BatchNorm2d(512, eps=1e-05, momentum=0.1, affine=True, track_running_stats=True)
          (rbr_dense): Sequential(
            (conv): Conv2d(512, 512, kernel_size=(3, 3), stride=(1, 1), padding=(1, 1), bias=False)
            (bn): BatchNorm2d(512, eps=1e-05, momentum=0.1, affine=True, track_running_stats=True)
          )
          (rbr_1x1): Sequential(
            (conv): Conv2d(512, 512, kernel_size=(1, 1), stride=(1, 1), bias=False)
            (bn): BatchNorm2d(512, eps=1e-05, momentum=0.1, affine=True, track_running_stats=True)
          )
        )
        (5): RepVGGplusBlock(
          (nonlinearity): ReLU()
          (post_se): SEBlock(
            (down): Conv2d(512, 128, kernel_size=(1, 1), stride=(1, 1))
            (up): Conv2d(128, 512, kernel_size=(1, 1), stride=(1, 1))
          )
          (rbr_identity): BatchNorm2d(512, eps=1e-05, momentum=0.1, affine=True, track_running_stats=True)
          (rbr_dense): Sequential(
            (conv): Conv2d(512, 512, kernel_size=(3, 3), stride=(1, 1), padding=(1, 1), bias=False)
            (bn): BatchNorm2d(512, eps=1e-05, momentum=0.1, affine=True, track_running_stats=True)
          )
          (rbr_1x1): Sequential(
            (conv): Conv2d(512, 512, kernel_size=(1, 1), stride=(1, 1), bias=False)
            (bn): BatchNorm2d(512, eps=1e-05, momentum=0.1, affine=True, track_running_stats=True)
          )
        )
        (6): RepVGGplusBlock(
          (nonlinearity): ReLU()
          (post_se): SEBlock(
            (down): Conv2d(512, 128, kernel_size=(1, 1), stride=(1, 1))
            (up): Conv2d(128, 512, kernel_size=(1, 1), stride=(1, 1))
          )
          (rbr_identity): BatchNorm2d(512, eps=1e-05, momentum=0.1, affine=True, track_running_stats=True)
          (rbr_dense): Sequential(
            (conv): Conv2d(512, 512, kernel_size=(3, 3), stride=(1, 1), padding=(1, 1), bias=False)
            (bn): BatchNorm2d(512, eps=1e-05, momentum=0.1, affine=True, track_running_stats=True)
          )
          (rbr_1x1): Sequential(
            (conv): Conv2d(512, 512, kernel_size=(1, 1), stride=(1, 1), bias=False)
            (bn): BatchNorm2d(512, eps=1e-05, momentum=0.1, affine=True, track_running_stats=True)
          )
        )
        (7): RepVGGplusBlock(
          (nonlinearity): ReLU()
          (post_se): SEBlock(
            (down): Conv2d(512, 128, kernel_size=(1, 1), stride=(1, 1))
            (up): Conv2d(128, 512, kernel_size=(1, 1), stride=(1, 1))
          )
          (rbr_identity): BatchNorm2d(512, eps=1e-05, momentum=0.1, affine=True, track_running_stats=True)
          (rbr_dense): Sequential(
            (conv): Conv2d(512, 512, kernel_size=(3, 3), stride=(1, 1), padding=(1, 1), bias=False)
            (bn): BatchNorm2d(512, eps=1e-05, momentum=0.1, affine=True, track_running_stats=True)
          )
          (rbr_1x1): Sequential(
            (conv): Conv2d(512, 512, kernel_size=(1, 1), stride=(1, 1), bias=False)
            (bn): BatchNorm2d(512, eps=1e-05, momentum=0.1, affine=True, track_running_stats=True)
          )
        )
        (8): RepVGGplusBlock(
          (nonlinearity): ReLU()
          (post_se): SEBlock(
            (down): Conv2d(512, 128, kernel_size=(1, 1), stride=(1, 1))
            (up): Conv2d(128, 512, kernel_size=(1, 1), stride=(1, 1))
          )
          (rbr_identity): BatchNorm2d(512, eps=1e-05, momentum=0.1, affine=True, track_running_stats=True)
          (rbr_dense): Sequential(
            (conv): Conv2d(512, 512, kernel_size=(3, 3), stride=(1, 1), padding=(1, 1), bias=False)
            (bn): BatchNorm2d(512, eps=1e-05, momentum=0.1, affine=True, track_running_stats=True)
          )
          (rbr_1x1): Sequential(
            (conv): Conv2d(512, 512, kernel_size=(1, 1), stride=(1, 1), bias=False)
            (bn): BatchNorm2d(512, eps=1e-05, momentum=0.1, affine=True, track_running_stats=True)
          )
        )
        (9): RepVGGplusBlock(
          (nonlinearity): ReLU()
          (post_se): SEBlock(
            (down): Conv2d(512, 128, kernel_size=(1, 1), stride=(1, 1))
            (up): Conv2d(128, 512, kernel_size=(1, 1), stride=(1, 1))
          )
          (rbr_identity): BatchNorm2d(512, eps=1e-05, momentum=0.1, affine=True, track_running_stats=True)
          (rbr_dense): Sequential(
            (conv): Conv2d(512, 512, kernel_size=(3, 3), stride=(1, 1), padding=(1, 1), bias=False)
            (bn): BatchNorm2d(512, eps=1e-05, momentum=0.1, affine=True, track_running_stats=True)
          )
          (rbr_1x1): Sequential(
            (conv): Conv2d(512, 512, kernel_size=(1, 1), stride=(1, 1), bias=False)
            (bn): BatchNorm2d(512, eps=1e-05, momentum=0.1, affine=True, track_running_stats=True)
          )
        )
        (10): RepVGGplusBlock(
          (nonlinearity): ReLU()
          (post_se): SEBlock(
            (down): Conv2d(512, 128, kernel_size=(1, 1), stride=(1, 1))
            (up): Conv2d(128, 512, kernel_size=(1, 1), stride=(1, 1))
          )
          (rbr_identity): BatchNorm2d(512, eps=1e-05, momentum=0.1, affine=True, track_running_stats=True)
          (rbr_dense): Sequential(
            (conv): Conv2d(512, 512, kernel_size=(3, 3), stride=(1, 1), padding=(1, 1), bias=False)
            (bn): BatchNorm2d(512, eps=1e-05, momentum=0.1, affine=True, track_running_stats=True)
          )
          (rbr_1x1): Sequential(
            (conv): Conv2d(512, 512, kernel_size=(1, 1), stride=(1, 1), bias=False)
            (bn): BatchNorm2d(512, eps=1e-05, momentum=0.1, affine=True, track_running_stats=True)
          )
        )
        (11): RepVGGplusBlock(
          (nonlinearity): ReLU()
          (post_se): SEBlock(
            (down): Conv2d(512, 128, kernel_size=(1, 1), stride=(1, 1))
            (up): Conv2d(128, 512, kernel_size=(1, 1), stride=(1, 1))
          )
          (rbr_identity): BatchNorm2d(512, eps=1e-05, momentum=0.1, affine=True, track_running_stats=True)
          (rbr_dense): Sequential(
            (conv): Conv2d(512, 512, kernel_size=(3, 3), stride=(1, 1), padding=(1, 1), bias=False)
            (bn): BatchNorm2d(512, eps=1e-05, momentum=0.1, affine=True, track_running_stats=True)
          )
          (rbr_1x1): Sequential(
            (conv): Conv2d(512, 512, kernel_size=(1, 1), stride=(1, 1), bias=False)
            (bn): BatchNorm2d(512, eps=1e-05, momentum=0.1, affine=True, track_running_stats=True)
          )
        )
        (12): RepVGGplusBlock(
          (nonlinearity): ReLU()
          (post_se): SEBlock(
            (down): Conv2d(512, 128, kernel_size=(1, 1), stride=(1, 1))
            (up): Conv2d(128, 512, kernel_size=(1, 1), stride=(1, 1))
          )
          (rbr_identity): BatchNorm2d(512, eps=1e-05, momentum=0.1, affine=True, track_running_stats=True)
          (rbr_dense): Sequential(
            (conv): Conv2d(512, 512, kernel_size=(3, 3), stride=(1, 1), padding=(1, 1), bias=False)
            (bn): BatchNorm2d(512, eps=1e-05, momentum=0.1, affine=True, track_running_stats=True)
          )
          (rbr_1x1): Sequential(
            (conv): Conv2d(512, 512, kernel_size=(1, 1), stride=(1, 1), bias=False)
            (bn): BatchNorm2d(512, eps=1e-05, momentum=0.1, affine=True, track_running_stats=True)
          )
        )
        (13): RepVGGplusBlock(
          (nonlinearity): ReLU()
          (post_se): SEBlock(
            (down): Conv2d(512, 128, kernel_size=(1, 1), stride=(1, 1))
            (up): Conv2d(128, 512, kernel_size=(1, 1), stride=(1, 1))
          )
          (rbr_identity): BatchNorm2d(512, eps=1e-05, momentum=0.1, affine=True, track_running_stats=True)
          (rbr_dense): Sequential(
            (conv): Conv2d(512, 512, kernel_size=(3, 3), stride=(1, 1), padding=(1, 1), bias=False)
            (bn): BatchNorm2d(512, eps=1e-05, momentum=0.1, affine=True, track_running_stats=True)
          )
          (rbr_1x1): Sequential(
            (conv): Conv2d(512, 512, kernel_size=(1, 1), stride=(1, 1), bias=False)
            (bn): BatchNorm2d(512, eps=1e-05, momentum=0.1, affine=True, track_running_stats=True)
          )
        )
        (14): RepVGGplusBlock(
          (nonlinearity): ReLU()
          (post_se): SEBlock(
            (down): Conv2d(512, 128, kernel_size=(1, 1), stride=(1, 1))
            (up): Conv2d(128, 512, kernel_size=(1, 1), stride=(1, 1))
          )
          (rbr_identity): BatchNorm2d(512, eps=1e-05, momentum=0.1, affine=True, track_running_stats=True)
          (rbr_dense): Sequential(
            (conv): Conv2d(512, 512, kernel_size=(3, 3), stride=(1, 1), padding=(1, 1), bias=False)
            (bn): BatchNorm2d(512, eps=1e-05, momentum=0.1, affine=True, track_running_stats=True)
          )
          (rbr_1x1): Sequential(
            (conv): Conv2d(512, 512, kernel_size=(1, 1), stride=(1, 1), bias=False)
            (bn): BatchNorm2d(512, eps=1e-05, momentum=0.1, affine=True, track_running_stats=True)
          )
        )
        (15): RepVGGplusBlock(
          (nonlinearity): ReLU()
          (post_se): SEBlock(
            (down): Conv2d(512, 128, kernel_size=(1, 1), stride=(1, 1))
            (up): Conv2d(128, 512, kernel_size=(1, 1), stride=(1, 1))
          )
          (rbr_identity): BatchNorm2d(512, eps=1e-05, momentum=0.1, affine=True, track_running_stats=True)
          (rbr_dense): Sequential(
            (conv): Conv2d(512, 512, kernel_size=(3, 3), stride=(1, 1), padding=(1, 1), bias=False)
            (bn): BatchNorm2d(512, eps=1e-05, momentum=0.1, affine=True, track_running_stats=True)
          )
          (rbr_1x1): Sequential(
            (conv): Conv2d(512, 512, kernel_size=(1, 1), stride=(1, 1), bias=False)
            (bn): BatchNorm2d(512, eps=1e-05, momentum=0.1, affine=True, track_running_stats=True)
          )
        )
        (16): RepVGGplusBlock(
          (nonlinearity): ReLU()
          (post_se): SEBlock(
            (down): Conv2d(512, 128, kernel_size=(1, 1), stride=(1, 1))
            (up): Conv2d(128, 512, kernel_size=(1, 1), stride=(1, 1))
          )
          (rbr_identity): BatchNorm2d(512, eps=1e-05, momentum=0.1, affine=True, track_running_stats=True)
          (rbr_dense): Sequential(
            (conv): Conv2d(512, 512, kernel_size=(3, 3), stride=(1, 1), padding=(1, 1), bias=False)
            (bn): BatchNorm2d(512, eps=1e-05, momentum=0.1, affine=True, track_running_stats=True)
          )
          (rbr_1x1): Sequential(
            (conv): Conv2d(512, 512, kernel_size=(1, 1), stride=(1, 1), bias=False)
            (bn): BatchNorm2d(512, eps=1e-05, momentum=0.1, affine=True, track_running_stats=True)
          )
        )
        (17): RepVGGplusBlock(
          (nonlinearity): ReLU()
          (post_se): SEBlock(
            (down): Conv2d(512, 128, kernel_size=(1, 1), stride=(1, 1))
            (up): Conv2d(128, 512, kernel_size=(1, 1), stride=(1, 1))
          )
          (rbr_identity): BatchNorm2d(512, eps=1e-05, momentum=0.1, affine=True, track_running_stats=True)
          (rbr_dense): Sequential(
            (conv): Conv2d(512, 512, kernel_size=(3, 3), stride=(1, 1), padding=(1, 1), bias=False)
            (bn): BatchNorm2d(512, eps=1e-05, momentum=0.1, affine=True, track_running_stats=True)
          )
          (rbr_1x1): Sequential(
            (conv): Conv2d(512, 512, kernel_size=(1, 1), stride=(1, 1), bias=False)
            (bn): BatchNorm2d(512, eps=1e-05, momentum=0.1, affine=True, track_running_stats=True)
          )
        )
        (18): RepVGGplusBlock(
          (nonlinearity): ReLU()
          (post_se): SEBlock(
            (down): Conv2d(512, 128, kernel_size=(1, 1), stride=(1, 1))
            (up): Conv2d(128, 512, kernel_size=(1, 1), stride=(1, 1))
          )
          (rbr_identity): BatchNorm2d(512, eps=1e-05, momentum=0.1, affine=True, track_running_stats=True)
          (rbr_dense): Sequential(
            (conv): Conv2d(512, 512, kernel_size=(3, 3), stride=(1, 1), padding=(1, 1), bias=False)
            (bn): BatchNorm2d(512, eps=1e-05, momentum=0.1, affine=True, track_running_stats=True)
          )
          (rbr_1x1): Sequential(
            (conv): Conv2d(512, 512, kernel_size=(1, 1), stride=(1, 1), bias=False)
            (bn): BatchNorm2d(512, eps=1e-05, momentum=0.1, affine=True, track_running_stats=True)
          )
        )
        (19): RepVGGplusBlock(
          (nonlinearity): ReLU()
          (post_se): SEBlock(
            (down): Conv2d(512, 128, kernel_size=(1, 1), stride=(1, 1))
            (up): Conv2d(128, 512, kernel_size=(1, 1), stride=(1, 1))
          )
          (rbr_identity): BatchNorm2d(512, eps=1e-05, momentum=0.1, affine=True, track_running_stats=True)
          (rbr_dense): Sequential(
            (conv): Conv2d(512, 512, kernel_size=(3, 3), stride=(1, 1), padding=(1, 1), bias=False)
            (bn): BatchNorm2d(512, eps=1e-05, momentum=0.1, affine=True, track_running_stats=True)
          )
          (rbr_1x1): Sequential(
            (conv): Conv2d(512, 512, kernel_size=(1, 1), stride=(1, 1), bias=False)
            (bn): BatchNorm2d(512, eps=1e-05, momentum=0.1, affine=True, track_running_stats=True)
          )
        )
        (20): RepVGGplusBlock(
          (nonlinearity): ReLU()
          (post_se): SEBlock(
            (down): Conv2d(512, 128, kernel_size=(1, 1), stride=(1, 1))
            (up): Conv2d(128, 512, kernel_size=(1, 1), stride=(1, 1))
          )
          (rbr_identity): BatchNorm2d(512, eps=1e-05, momentum=0.1, affine=True, track_running_stats=True)
          (rbr_dense): Sequential(
            (conv): Conv2d(512, 512, kernel_size=(3, 3), stride=(1, 1), padding=(1, 1), bias=False)
            (bn): BatchNorm2d(512, eps=1e-05, momentum=0.1, affine=True, track_running_stats=True)
          )
          (rbr_1x1): Sequential(
            (conv): Conv2d(512, 512, kernel_size=(1, 1), stride=(1, 1), bias=False)
            (bn): BatchNorm2d(512, eps=1e-05, momentum=0.1, affine=True, track_running_stats=True)
          )
        )
        (21): RepVGGplusBlock(
          (nonlinearity): ReLU()
          (post_se): SEBlock(
            (down): Conv2d(512, 128, kernel_size=(1, 1), stride=(1, 1))
            (up): Conv2d(128, 512, kernel_size=(1, 1), stride=(1, 1))
          )
          (rbr_identity): BatchNorm2d(512, eps=1e-05, momentum=0.1, affine=True, track_running_stats=True)
          (rbr_dense): Sequential(
            (conv): Conv2d(512, 512, kernel_size=(3, 3), stride=(1, 1), padding=(1, 1), bias=False)
            (bn): BatchNorm2d(512, eps=1e-05, momentum=0.1, affine=True, track_running_stats=True)
          )
          (rbr_1x1): Sequential(
            (conv): Conv2d(512, 512, kernel_size=(1, 1), stride=(1, 1), bias=False)
            (bn): BatchNorm2d(512, eps=1e-05, momentum=0.1, affine=True, track_running_stats=True)
          )
        )
        (22): RepVGGplusBlock(
          (nonlinearity): ReLU()
          (post_se): SEBlock(
            (down): Conv2d(512, 128, kernel_size=(1, 1), stride=(1, 1))
            (up): Conv2d(128, 512, kernel_size=(1, 1), stride=(1, 1))
          )
          (rbr_identity): BatchNorm2d(512, eps=1e-05, momentum=0.1, affine=True, track_running_stats=True)
          (rbr_dense): Sequential(
            (conv): Conv2d(512, 512, kernel_size=(3, 3), stride=(1, 1), padding=(1, 1), bias=False)
            (bn): BatchNorm2d(512, eps=1e-05, momentum=0.1, affine=True, track_running_stats=True)
          )
          (rbr_1x1): Sequential(
            (conv): Conv2d(512, 512, kernel_size=(1, 1), stride=(1, 1), bias=False)
            (bn): BatchNorm2d(512, eps=1e-05, momentum=0.1, affine=True, track_running_stats=True)
          )
        )
        (23): RepVGGplusBlock(
          (nonlinearity): ReLU()
          (post_se): SEBlock(
            (down): Conv2d(512, 128, kernel_size=(1, 1), stride=(1, 1))
            (up): Conv2d(128, 512, kernel_size=(1, 1), stride=(1, 1))
          )
          (rbr_identity): BatchNorm2d(512, eps=1e-05, momentum=0.1, affine=True, track_running_stats=True)
          (rbr_dense): Sequential(
            (conv): Conv2d(512, 512, kernel_size=(3, 3), stride=(1, 1), padding=(1, 1), bias=False)
            (bn): BatchNorm2d(512, eps=1e-05, momentum=0.1, affine=True, track_running_stats=True)
          )
          (rbr_1x1): Sequential(
            (conv): Conv2d(512, 512, kernel_size=(1, 1), stride=(1, 1), bias=False)
            (bn): BatchNorm2d(512, eps=1e-05, momentum=0.1, affine=True, track_running_stats=True)
          )
        )
      )
    )
  )
  (class_head): Sequential(
    (0): Conv2d(514, 256, kernel_size=(3, 3), stride=(1, 1), padding=(1, 1))
    (1): ReLU()
    (conv_0): Conv2d(256, 256, kernel_size=(3, 3), stride=(1, 1), padding=(1, 1))
    (relu_0): ReLU()
    (conv_1): Conv2d(256, 256, kernel_size=(3, 3), stride=(1, 1), padding=(1, 1))
    (relu_1): ReLU()
    (conv_2): Conv2d(256, 256, kernel_size=(3, 3), stride=(1, 1), padding=(1, 1))
    (relu_2): ReLU()
    (conv_3): Conv2d(256, 256, kernel_size=(3, 3), stride=(1, 1), padding=(1, 1))
    (relu_3): ReLU()
    (conv_4): Conv2d(256, 256, kernel_size=(3, 3), stride=(1, 1), padding=(1, 1))
    (relu_4): ReLU()
    (conv_5): Conv2d(256, 256, kernel_size=(3, 3), stride=(1, 1), padding=(1, 1))
    (relu_5): ReLU()
    (cls): Conv2d(256, 1, kernel_size=(1, 1), stride=(1, 1))
  )
  (box_head): Sequential(
    (0): Conv2d(514, 256, kernel_size=(3, 3), stride=(1, 1), padding=(1, 1))
    (1): ReLU()
    (conv_0): Conv2d(256, 256, kernel_size=(3, 3), stride=(1, 1), padding=(1, 1))
    (relu_0): ReLU()
    (conv_1): Conv2d(256, 256, kernel_size=(3, 3), stride=(1, 1), padding=(1, 1))
    (relu_1): ReLU()
    (conv_2): Conv2d(256, 256, kernel_size=(3, 3), stride=(1, 1), padding=(1, 1))
    (relu_2): ReLU()
    (conv_3): Conv2d(256, 256, kernel_size=(3, 3), stride=(1, 1), padding=(1, 1))
    (relu_3): ReLU()
    (conv_4): Conv2d(256, 256, kernel_size=(3, 3), stride=(1, 1), padding=(1, 1))
    (relu_4): ReLU()
    (conv_5): Conv2d(256, 256, kernel_size=(3, 3), stride=(1, 1), padding=(1, 1))
    (relu_5): ReLU()
  )
  (box): Conv2d(256, 4, kernel_size=(3, 3), stride=(1, 1), padding=(1, 1))
  (offset_head): Sequential(
    (0): Conv2d(514, 256, kernel_size=(3, 3), stride=(1, 1), padding=(1, 1))
    (1): ReLU()
    (conv_0): Conv2d(256, 256, kernel_size=(3, 3), stride=(1, 1), padding=(1, 1))
    (relu_0): ReLU()
    (conv_1): Conv2d(256, 256, kernel_size=(3, 3), stride=(1, 1), padding=(1, 1))
    (relu_1): ReLU()
    (conv_2): Conv2d(256, 256, kernel_size=(3, 3), stride=(1, 1), padding=(1, 1))
    (relu_2): ReLU()
    (conv_3): Conv2d(256, 256, kernel_size=(3, 3), stride=(1, 1), padding=(1, 1))
    (relu_3): ReLU()
    (conv_4): Conv2d(256, 256, kernel_size=(3, 3), stride=(1, 1), padding=(1, 1))
    (relu_4): ReLU()
    (conv_5): Conv2d(256, 256, kernel_size=(3, 3), stride=(1, 1), padding=(1, 1))
    (relu_5): ReLU()
  )
  (offset): Conv2d(256, 2, kernel_size=(1, 1), stride=(1, 1))
  (seg_head): Sequential(
    (0): Conv2d(5, 256, kernel_size=(3, 3), stride=(1, 1), padding=(1, 1))
    (1): ReLU()
    (conv_0): Conv2d(256, 256, kernel_size=(3, 3), stride=(1, 1), padding=(1, 1))
    (relu_0): ReLU()
    (conv_1): Conv2d(256, 256, kernel_size=(3, 3), stride=(1, 1), padding=(1, 1))
    (relu_1): ReLU()
    (conv_2): Conv2d(256, 256, kernel_size=(3, 3), stride=(1, 1), padding=(1, 1))
    (relu_2): ReLU()
    (conv_3): Conv2d(256, 256, kernel_size=(3, 3), stride=(1, 1), padding=(1, 1))
    (relu_3): ReLU()
    (conv_4): Conv2d(256, 256, kernel_size=(3, 3), stride=(1, 1), padding=(1, 1))
    (relu_4): ReLU()
    (conv_5): Conv2d(256, 256, kernel_size=(3, 3), stride=(1, 1), padding=(1, 1))
    (relu_5): ReLU()
  )
  (seg): Conv2d(256, 1, kernel_size=(1, 1), stride=(1, 1))
)
[2022-12-19 20:31:53 RepVGGplus-tinyism] (train_repvgg.py 88): INFO number of params: 99485497
[2022-12-19 20:31:53 RepVGGplus-tinyism] (train_repvgg.py 104): INFO Start training
[2022-12-19 20:31:59 RepVGGplus-tinyism] (train_repvgg.py 210): INFO Train: [0/300][0/37]	eta 0:03:35 lr 0.000000	time 5.8166 (5.8166)	loss 209.6932 (209.6932)	grad_norm 18.8662 (18.8662)	mem 14374MB
…
